onnx_saved/mlp_10_5_1.onnx (onnx, 663 bytes, 3 tensors)

fc1.weight f4 [5, 10]
0	0x3dcbbeb4	0.09948483
1	0x3e38aaa6	0.18033847
2	0xbe824c9e	-0.2544908
3	0xbd568b10	-0.052378714
4	0x3ddeeb10	0.10884678
5	0x3e048b66	0.12943801
6	0xbe76faed	-0.24119158
7	0xbe913d5c	-0.28367126
8	0xbe108b5d	-0.14115663
9	0x3e9a9f73	0.30199775
10	0x3e88e0f1	0.26734117
11	0xbdafb9a8	-0.08580333
12	0xbe5d06b2	-0.21584585
13	0xbe8973a0	-0.26846027
14	0x3d416d30	0.04722327
15	0x3cc6ad10	0.024252445
16	0x3e685f52	0.22692612
17	0xbe2bfdcb	-0.16796033
18	0xbe900775	-0.2813069
19	0xbcd78430	-0.02630815
20	0xbe8203cc	-0.25393522
21	0xbe9f4ecf	-0.31114814
22	0x3e393088	0.1808492
23	0x3e1242ac	0.14283246
24	0xbe1764a3	-0.14784484
25	0x3b266c00	0.0025393963
26	0xbe7e3a36	-0.24826893
27	0xbdda45aa	-0.106578186
28	0xbe883f84	-0.2661096
29	0x3c5d2240	0.013496935
30	0xbe8c5090	-0.27405214
31	0xbe976d14	-0.29575408
32	0x3cc286c0	0.023745894
33	0x3e87e697	0.26543114
34	0x3e377b8e	0.17918226
35	0x3e301b0c	0.17197818
36	0xbe50f310	-0.20405221
37	0x3e570e8a	0.2100164
38	0x3de490cc	0.1116043
39	0x3e07d06e	0.13263103
40	0x3e2b57f4	0.1673277
41	0x3d09ed00	0.033673286
42	0xbdaa8be8	-0.08327466
43	0x3e60935e	0.21931216
44	0x3e286972	0.16446474
45	0x3e9f0729	0.3106015
46	0x3c797c40	0.015227377
47	0x3cc545a0	0.024081051
48	0x3e9fe807	0.3123171
49	0xbc66ae60	-0.01407966

fc1.bias f4 [5]
0	0xbe0e57e2	-0.13900712
1	0xbd8e38be	-0.069444165
2	0x3e5205ca	0.20510021
3	0x3e06554e	0.13118479
4	0xbe810daf	-0.25205752

fc2.weight f4 [1, 5]
0	0xbc270620	-0.010194331
1	0x3e863242	0.2621022
2	0xbe1e6812	-0.15469387
3	0x3d64fb90	0.05590397
4	0x3cd74de0	0.02628225
